RL_Training/runs/sanity_iql_dibs_fast/checkpoint_1000.pt (torch, 108885 bytes, 30 tensors)

backbone.fcs.0.weight f4 [64, 25]
000000 a8 fb 1f 3e ae 10 0b 3e 3d 2b 02 bd be f8 17 3e
       0.15623343 0.13580582 -0.031779516 0.14840981
000010 81 e1 3b bd 17 26 39 3c 2c 3d 7e bd 0b 7e 22 3e
       -0.045869354 0.011300585 -0.062070057 0.15868394
000020 f2 2d 31 3e 3a 71 01 be 7b 1b 3b 3e 6f 3d 13 3d
       0.17302683 -0.12640849 0.18272202 0.03594726
000030 ae b6 1a 3e f9 ee cb 3c 11 44 c9 3d 1d fd fb bc
       0.1510875 0.024894224 0.09827436 -0.030760342
000040 23 ea fd 3d c2 75 87 3d 12 69 74 bd 49 81 9b 3d
       0.12398174 0.066142574 -0.059670515 0.075930186
000050 8d 64 c3 bd bb 96 ae bc b6 64 46 bd ce 8c 17 3e
       -0.09540663 -0.021312108 -0.04843589 0.14799806
000060 81 d7 ee bd 48 31 b3 bd ae 67 db bc 1b 1f 08 be
       -0.11662198 -0.08749634 -0.026782837 -0.13293116
000070 6c ca 45 bc e2 1a b4 bd 2f 06 1a 3e dc 8d fa bd
       -0.012072187 -0.0879419 0.15041421 -0.12234089
000080 ae d1 15 3e 78 f6 12 bd 8b 13 87 bd 77 56 01 3e
       0.14630768 -0.035879582 -0.065955244 0.1263064
000090 7d cf 08 3d 3a 44 2a 3e cd 08 2e 3d 4d a6 25 bd
       0.033401 0.16627589 0.04248886 -0.0404418
0000a0 14 fc a7 3d 91 10 c9 bc 02 ab e7 3d 0d e3 6a 3e
       0.08202377 -0.024544032 0.11311914 0.22938175
0000b0 d2 7b 58 3e 14 58 20 be 2b d8 03 3e af 42 47 3d
       0.21140984 -0.15658599 0.1287543 0.04864758
0000c0 9e e1 b3 3d 29 17 05 be 08 f9 5d be e5 34 c6 bd
       0.087832674 -0.12997116 -0.21677029 -0.096780576
0000d0 a0 44 2b be b5 f7 0d 3e 77 48 e7 3c d3 5d 93 3d
       -0.16725397 0.13864024 0.028232796 0.0719563
0000e0 14 37 11 3d ed 4a 53 bc 1c 02 06 3e ca b4 14 be
       0.035452917 -0.012896282 0.13086742 -0.1452209
0000f0 90 f0 28 3c 33 be 07 be a1 91 2f 3d 3a 82 9c bd
       0.010311261 -0.13256149 0.042863492 -0.07642026
000100 06 38 62 3d 20 da 36 bd 2e dc 15 3e 45 86 fc bd
       0.05522921 -0.044641614 0.14634773 -0.123302974
000110 7b 88 fd bd 22 bb 09 be 9a ef 1d 3e e4 26 6a 3d
       -0.12379547 -0.13450292 0.15423432 0.057165995
000120 5d 6c 3b 3e 48 b8 34 be d4 c3 54 be ee 63 00 be
       0.18303056 -0.17648423 -0.20777828 -0.1253812
000130 91 ab cf bd 62 12 c9 3d 33 71 54 3d 27 98 12 3e
       -0.101401456 0.09817959 0.051865768 0.14315854
000140 a5 f0 b4 bd 85 c9 e8 bd 20 51 04 3e 1b d6 1d be
       -0.08834962 -0.11366562 0.12921572 -0.15413706
000150 70 45 1a 3e 0a 98 85 bb 98 60 1a 3e 24 92 fe bd
       0.15065551 -0.0040769624 0.1507591 -0.12430218
000160 de aa 8a bd 61 f4 c3 3d 53 6b 94 3d 07 53 92 bc
       -0.067708716 0.09568096 0.07247033 -0.017861856
000170 8d 2a 24 3e c9 ff 4a 3e 13 07 4c bd 01 64 38 be
       0.16031857 0.19824137 -0.049811434 -0.18006898
000180 05 de 4c 3e ba 4b 35 bd 0a 8c 41 bd 9a 7a 2e be
       0.20006569 -0.04426167 -0.047252692 -0.17038956
000190 31 3a 02 be fe 69 68 3d 72 89 15 bd 22 3f 03 be
       -0.12717511 0.056741707 -0.03650803 -0.12817052
0001a0 6f f8 1a 3d 37 a5 f7 bd ae 0d 11 be 18 8a 11 be
       0.03783458 -0.12092059 -0.14165375 -0.14212835
0001b0 fb ae 83 be c6 83 16 be d1 02 36 3e c7 24 b8 3c
       -0.25719437 -0.14698705 0.17774512 0.022478474
0001c0 6f 9c 48 3d 44 d8 28 be a1 3e 0a be f8 aa 6f bd
       0.04897731 -0.16488749 -0.13500454 -0.058512658
0001d0 fd df 1b 3d cc c6 2e be ab 88 97 bd ca de f7 bd
       0.03805541 -0.17068022 -0.07399114 -0.121030405
0001e0 aa 24 a7 bd 4e 2a 54 bd 10 1b 5c 3c 5b 54 06 be
       -0.0816129 -0.051798157 0.013434187 -0.13118117
0001f0 cd 55 2d be ad c7 09 be ee 7b 5b bd ec da 02 be
       -0.16927262 -0.13455077 -0.053584985 -0.12778825
000200 43 1b 3e 3e 3b 43 39 bc 67 1e 38 3e 33 78 ad 3d
       0.18565087 -0.011307533 0.17980348 0.08470192
000210 ed fc 13 be 3f f7 cd 3d 91 58 db bc 8e 55 14 bd
       -0.14451952 0.10056924 -0.02677563 -0.036214404
000220 45 bc 16 be 3b e7 5d be 9a 2d 94 3d fa 32 c5 bc
       -0.14720257 -0.21670239 0.0723526 -0.02407216
000230 71 e3 cc 3d 4d d4 18 be dd 48 24 3e ee 74 02 be
       0.100043185 -0.14924736 0.1604342 -0.12739918
000240 ef f8 5d bc 49 35 81 3b bf 12 0b 3e 99 b1 47 3e
       -0.01354812 0.0039431197 0.1358137 0.19501342
000250 a0 bd 55 3e 55 f4 08 be 65 1c 3e 3d b0 1a a4 bd
       0.20873117 -0.13374455 0.046413798 -0.08012903
000260 10 fb 3a bc 01 64 2c be c2 af 25 3e f6 bb 08 be
       -0.011412397 -0.16835023 0.16180328 -0.13352951
000270 6e 10 a7 3d 34 25 7e 3d 3c ca c8 3d f7 cc eb bd
       0.081574306 0.0620472 0.09804198 -0.11513703
000280 75 c5 17 3e 94 63 1d 3d 19 ac b2 3c 6b 8e 59 be
       0.14821418 0.038425043 0.021810578 -0.21245734
000290 7d ca 54 3d 4d 20 10 bd 85 92 af bd 25 c4 e1 3d
       0.05195092 -0.035187054 -0.08572868 0.1102374
0002a0 7e 18 4b bc 99 96 24 be 91 98 8b bd 3b b4 52 bd
       -0.012395976 -0.16073073 -0.06816209 -0.051441412
0002b0 b0 da 83 3d cb 9b a6 bd 3a 8e fa bd 9c 07 a5 bd
       0.06438196 -0.08135184 -0.12234159 -0.08058092
0002c0 29 68 00 be c9 c9 7e 3d 4d 09 0c 3e a6 64 11 be
       -0.12539734 0.062204156 0.13675423 -0.1419855
0002d0 69 eb de 3c 1d 07 03 3e 62 dc 3f 3d df 92 09 be
       0.027211862 0.12795682 0.046841033 -0.13434933
0002e0 a0 0d bb 3d 2b c2 d9 3d 15 7b 99 3d 49 7f 41 bd
       0.09133458 0.10632738 0.07494179 -0.04724053
0002f0 78 90 2f bd 92 45 25 3d e6 4c 3d bc d4 ca 11 bd
       -0.042862386 0.04034955 -0.011553979 -0.035593823
000300 e0 7e 03 3e 19 70 4e 3e 31 09 4b 3d bb fe dc bd
       0.12841368 0.2015995 0.049569312 -0.107907735
000310 52 5e 65 3a 91 5c 62 bc 04 74 2b 3d 35 6f 88 3d
       0.00087497116 -0.013816015 0.041858688 0.06661836
000320 cb a7 30 be 75 8c 6d bd 2b f8 3b 3e c8 50 bc 3d
       -0.17251508 -0.05799528 0.18356387 0.09195095
000330 37 33 78 bc f4 63 ba bd db 0e 85 bd 4e 98 01 be
       -0.015148929 -0.09101096 -0.06496974 -0.12655756
000340 8e 2c e0 bd bd 45 a6 3d cb 50 11 3e f3 90 de 3d
       -0.10945998 0.0811877 0.14190976 0.108674906
000350 1b ad 2b be ba 36 d3 bd 9e bf bb bc 41 bd 54 3e
       -0.16765253 -0.10313173 -0.022918519 0.2077532
000360 29 3d 37 3d 58 96 74 3b ce de 20 3e a1 1e 2f 3d
       0.04473606 0.0037321057 0.15709993 0.04275382
000370 61 e1 31 be 94 bb 3b 3e bc 85 32 bd de 7b 99 3b
       -0.17371131 0.18333274 -0.04358457 0.0046839556
000380 b8 e0 15 be 68 28 0d 3e 9d 04 27 3e 12 9e 9b 3d
       -0.14636505 0.13784945 0.16310354 0.07598509
000390 a4 5a f8 bd ee 40 51 be 4b 47 01 be ce dc fb 3d
       -0.12126663 -0.20434925 -0.12624852 0.122979745
0003a0 a6 31 bb 3d b5 cf 7b 3e 40 26 e6 3d fb 4b 7a 3d
       0.09140329 0.24590953 0.11237764 0.061107617
0003b0 cc 68 b7 bb 42 a1 17 be 94 80 1a be e2 4c 25 be
       -0.0055972096 -0.14807609 -0.15088111 -0.1614261
0003c0 38 78 ae 3d 84 58 b1 bd ac 3d 5f bd 9f 0a 28 be
       0.08519024 -0.08659461 -0.054502174 -0.16410302
0003d0 2c 47 10 be e5 4c 81 bd c5 52 04 be 8b f0 80 3d
       -0.1408965 -0.063134946 -0.12922199 0.0629588
0003e0 40 dc 68 bd 00 68 f3 3d fb e8 4a bd 7a 70 fc bd
       -0.05685067 0.11885071 -0.049538594 -0.12326141
0003f0 58 70 78 bc ff 61 be bc 60 83 75 bd 2c 70 f8 bd
       -0.015163504 -0.023240088 -0.059939742 -0.1213077

backbone.fcs.0.bias f4 [64]
000000 17 2d 24 be 93 ca dc 3d 18 c4 49 be aa f2 18 3c
       -0.16032825 0.107808255 -0.1970371 0.009335199
000010 2d 87 39 3c 52 b9 2f 3e e9 a3 bb bd ac b5 91 3d
       0.011323732 0.17160538 -0.09162123 0.07114729
000020 e2 62 99 3d cc 3d e4 3d 07 76 ea 3c 6b 63 01 3e
       0.074895635 0.11144599 0.028620733 0.12635581
000030 d7 2e e9 bd 51 ec c4 bd c7 c0 33 3e ac f0 1c be
       -0.11385887 -0.09615386 0.17554007 -0.15326184
000040 88 ce 19 3c 00 b1 91 3a 42 a3 3d 3e 52 de 06 bd
       0.00938762 0.0011115372 0.18519309 -0.032926865
000050 15 e5 3c be 9b 73 f4 bc 2c e5 ac 3d a7 8d 95 3d
       -0.18446763 -0.029840281 0.084421486 0.07302409
000060 e0 88 15 3e 42 ee 11 bc b4 52 ae 3d 74 e0 24 be
       0.14602995 -0.008906903 0.08511868 -0.16101247
000070 df 34 ab 3d 85 c4 5e 3d 5f d5 12 3e 91 f4 6f bd
       0.08359694 0.054386634 0.14339207 -0.058582846
000080 27 a9 4a bd dd 55 d3 3d 38 f6 0f be 01 2e 0c be
       -0.049477722 0.103191115 -0.14058769 -0.13689424
000090 c4 20 4d be 2e d6 95 3c b8 e0 d5 3d 03 7e 69 3d
       -0.2003203 0.018290605 0.10443252 0.05700494
0000a0 f0 d9 81 3d 6b 77 cc 3d 39 09 c2 bd 08 54 70 3c
       0.063403964 0.09983715 -0.09474415 0.014668472
0000b0 dd 17 db bb 3e 49 86 bd 84 37 38 3e 12 61 12 be
       -0.0066861943 -0.065569386 0.17989928 -0.14294842
0000c0 e3 e2 0f 3d f3 65 42 be fb 57 97 bc a1 53 a0 bd
       0.035128485 -0.18984203 -0.01847457 -0.07828451
0000d0 49 1c 9f 3d 62 f1 b0 bd 5f cc 26 3e 92 d2 2a be
       0.07769067 -0.0863979 0.16288899 -0.16681889
0000e0 21 5b de 3d 7e 4a 0f be 13 2a d5 3d ba 19 89 bd
       0.10857225 -0.1399326 0.10408416 -0.0669436
0000f0 bc 1a 10 bc 76 ed 89 bd 18 9d 04 3e 10 50 11 3d
       -0.0087954365 -0.06734745 0.12950552 0.035476744

backbone.fcs.1.weight f4 [64, 64]
000000 b4 b6 f9 bd 27 b0 cb 3c 34 10 c8 bd 12 d0 d9 3d
       -0.12193051 0.02486427 -0.097687155 0.106353894
000010 f9 6b 4c 3d 6a 85 bb bb 9e 6d ba bd 84 3b 54 3d
       0.04990766 -0.0057226913 -0.09102939 0.05181457
000020 8e 5f 06 bd f4 6a 62 3c 52 77 13 3c af 3c 3e 3d
       -0.03280597 0.013819445 0.009000616 0.04644459
000030 cf 0c 65 3d 38 93 49 bd 6e 81 59 3d c5 f7 00 bd
       0.05592042 -0.049212664 0.05310195 -0.03148629
000040 e7 bb f5 bc 11 8c f2 3c b9 a5 38 3d d2 23 c1 3d
       -0.029996825 0.029607804 0.04507992 0.0943066
000050 41 12 e8 3c e7 8a c8 3c 4f 2b 16 be 4b 52 3c bc
       0.028329017 0.024480296 -0.14664958 -0.01149423
000060 6b 13 cb bd fb 1d 87 3d 53 2b b2 bd ea 95 94 bd
       -0.09915813 0.06597515 -0.0869967 -0.07255156
000070 17 26 c4 3d b7 ba ea 3d 34 e1 3b bd 25 a2 85 3b
       0.095775776 0.11461394 -0.045869067 0.004078167
000080 a8 5b 82 bc 2d dd dc 3d fa 0e 8e bd a6 ba 96 bd
       -0.015912846 0.107843734 -0.0693645 -0.07359819
000090 08 b1 aa bd ed db 47 3d 83 1b b1 3d 22 d0 85 bd
       -0.08334547 0.048793722 0.086478256 -0.06533839
0000a0 58 61 9e 3d 46 ed c5 3d 7f 9d 8a 3d c7 76 08 3b
       0.077334106 0.09664397 0.06768321 0.002082275
0000b0 e5 e2 4b 3d e0 2d fb 3d f0 3b a6 3d ee e9 15 3e
       0.04977693 0.12264609 0.08116901 0.14640018
0000c0 3c 9a 2d bd c9 95 f6 3c e9 54 a5 3d 5e 10 a8 bd
       -0.042383417 0.03010072 0.08072836 -0.08206247
0000d0 cb 30 06 3d e8 84 74 bc b7 69 b1 3d d1 f0 3c bc
       0.032761376 -0.014924265 0.08662742 -0.0115320245
0000e0 a7 4a b9 3a a7 9d 3d 3d 9b d2 1c be 8c 6e a9 bd
       0.0014136628 0.046292927 -0.15314715 -0.08273038
0000f0 0b cc be bd 13 89 b7 3d 70 94 9c 3d 8d c8 92 bd
       -0.09316262 0.08961692 0.076455 -0.07167158
000100 c3 31 0a 3d 94 6c 33 bc f8 6e 6d bd 34 ab d4 3d
       0.033738863 -0.01095118 -0.057967156 0.10384217
000110 04 0d 92 3d 6e 11 77 ba a6 e6 9c bc 66 dd a0 3d
       0.07131389 -0.00094248995 -0.01915295 0.078547284
000120 45 88 72 3d 56 d3 9d bc 84 35 f4 bd 5b 22 05 3e
       0.059211988 -0.019265812 -0.1192427 0.13001387
000130 87 d3 18 3d 2b bd a7 3d 22 f5 04 bd 9d 1f bf 3d
       0.037311103 0.08190378 -0.03246034 0.09332202
000140 f1 6d c5 3d 9b 39 18 3e ba 1a ba 3c ef a8 e5 3d
       0.0964011 0.14865725 0.022717822 0.11213862
000150 64 0c 94 ba 92 e8 53 3c 77 ba ab 3d db be ee 3d
       -0.0011295197 0.012933867 0.08385175 0.116574965
000160 7d 78 b3 bc 1f a6 0a 3e b6 12 58 3d 78 40 7d 3b
       -0.02190804 0.13539933 0.05275222 0.0038643163
000170 76 88 02 3e 34 5a 7f bd 7d 78 f9 3d f0 a1 3a 3e
       0.12747368 -0.062341884 0.121811844 0.18225837
000180 a6 32 9b bd 4c cc 32 bc 79 37 23 be 10 3a f9 bc
       -0.0757802 -0.010912966 -0.1593913 -0.030423194
000190 4e e2 ec bd d9 07 d1 bc 6c b9 ec 3c 53 a7 a8 3d
       -0.11566602 -0.025516437 0.02889701 0.082350396
0001a0 53 f6 ed 3d 22 aa d4 3d d4 6c 6a 3d ea 49 fb bc
       0.11619248 0.10384013 0.057232693 -0.030674893
0001b0 96 8b 08 bd 7e cd 4e 3d 4b e3 15 3e 33 13 a3 3c
       -0.033336245 0.05048894 0.14637487 0.019906616
0001c0 37 41 f5 3b 33 9a 73 bd cb 75 aa bd 27 f9 a1 bd
       0.007484581 -0.059473228 -0.083232485 -0.0790885
0001d0 08 83 e6 3d 6d 87 2e 3c fe f7 9c bd 15 58 00 3d
       0.11255461 0.010652405 -0.07664488 0.031334
0001e0 cd 9a b0 3c 44 c1 4d bd 79 7a 1f 3d 8b db 9f 3d
       0.02155819 -0.05023314 0.03893516 0.078055464
0001f0 95 21 ef bd cf 8c 8b bd 4a b0 25 3b 84 df 9c bd
       -0.11676327 -0.068139665 0.0025282078 -0.0765982
000200 89 07 12 be da d5 a0 3d 32 aa 3d 3b 60 ea 73 bd
       -0.14260687 0.07853289 0.0028940556 -0.05954969
000210 d6 ca e4 bc f0 c9 ac bd f9 41 b3 3d 6b dc 27 bd
       -0.027928751 -0.08436954 0.08752818 -0.04098169
000220 17 cb 5a bd 12 53 f5 bd 20 d9 07 3d 38 0b a0 bc
       -0.053416338 -0.11978735 0.03316605 -0.0195366
000230 6a 9d c9 bb 2d 4b c0 bb 1f 38 83 bd f9 25 de 3c
       -0.0061527984 -0.0058683367 -0.064071886 0.027117716
000240 a0 fe 9c 3d a9 5f d9 bd df c3 bf bc be 2d d7 bd
       0.07665753 -0.10613949 -0.023408828 -0.105067715
000250 e5 a0 4c bd 52 93 91 3d 11 c6 eb bb 5a 51 d7 3d
       -0.04995813 0.07108177 -0.007195242 0.105135635
000260 b9 20 8b bc 82 8c 5c bd 81 82 a1 bd 7f 42 8b 3d
       -0.016983377 -0.053844936 -0.0788622 0.067997925
000270 ba e1 e0 bd c9 0c 67 3d ae 2f 50 3c 76 b8 80 3c
       -0.10980554 0.056408677 0.01270668 0.015712958
000280 ce 2f 0d 3d 6a b2 05 bd ba 34 27 3d e0 4f 07 be
       0.03446942 -0.032640852 0.04082177 -0.13214064
000290 06 50 80 bd e4 f7 d7 3d 91 8e 18 3d 71 34 ae bc
       -0.06265263 0.10545328 0.037245337 -0.02126524
0002a0 a6 dd 92 bc 53 95 84 bd d6 fc 07 3d a4 0e cb bc
       -0.017927956 -0.06473794 0.033200108 -0.024787255
0002b0 83 9a 7c bc 63 86 e2 3c 6a ef 91 3d b8 11 42 bd
       -0.015417698 0.027651971 0.07125743 -0.04738018
0002c0 46 cc 82 bd 0e 13 98 3d 98 9a a9 3d d0 1f a9 bd
       -0.06386618 0.074255094 0.082814395 -0.08258021
0002d0 72 c9 ed bd 75 a9 04 bc eb 6a 4d 3d 42 d9 c0 3c
       -0.11610688 -0.008097042 0.050150793 0.023541097
0002e0 17 1b c9 3d 27 c8 a6 bd 37 1a 2c 3d 23 48 94 bd
       0.0981962 -0.08143645 0.042017188 -0.072403215
0002f0 8a 1d 1a 3d f2 d4 d9 3d bd 5c bb 3c c8 89 da 3d
       0.037625827 0.10636319 0.02287137 0.10670811
000300 0a fa 8c bd 92 e0 1a be e2 26 ad bd 32 89 0f 3d
       -0.06883629 -0.1512473 -0.08454682 0.03504295
000310 e7 a8 bd 3c 02 4d e0 bd 4b 52 a7 3d 5e 56 84 3d
       0.023151828 -0.10952188 0.08169993 0.06461786
000320 2a 33 27 be cf bd 04 3e a3 e2 86 3d 34 7f a0 bc
       -0.16328111 0.12963031 0.06586196 -0.019591905
000330 09 ee 8b 3d b4 a3 29 bd 42 e0 bc 3d a4 05 be 3d
       0.06832511 -0.041415885 0.09222461 0.092784196
000340 54 8b 37 3d 4a 5f 11 bd 20 54 70 bd 3e 02 a6 3b
       0.044810608 -0.035491265 -0.058673978 0.0050661853
000350 0f 55 66 bd 3b cc 97 3d da 99 6c 3d 95 de 11 3d
       -0.056233462 0.07412001 0.05776391 0.03561266
000360 6e 57 c9 bd b7 00 90 bd 0f 9b 97 3d 81 fc 93 3d
       -0.09831129 -0.07031386 0.07402622 0.07225896
000370 7d 64 33 3d f8 13 0f bd 28 09 40 bd 43 16 77 bd
       0.043797005 -0.034931153 -0.046883732 -0.060323965
000380 d6 71 e4 3d 69 26 0c be 5b ac e9 3d 8f 01 ec 3d
       0.11154525 -0.13686527 0.11409827 0.11523735
000390 5a 70 ba bd 9e 83 9f 3c 4f 9f 05 3d e7 09 18 bd
       -0.091034606 0.01947194 0.03262263 -0.03711882
0003a0 3f 68 80 bb db 14 87 bd a9 19 00 3e 47 dc d2 bd
       -0.003918677 -0.06595775 0.12509789 -0.10295921
0003b0 06 df 19 bc 34 3e 14 be dc 33 a3 bd 61 bc 5c bc
       -0.009391552 -0.14476854 -0.07968876 -0.013472647
0003c0 95 3d b4 3d 73 8c a6 3d 3a 7b 9c bd 2e 66 b3 3c
       0.08800808 0.08132257 -0.07640691 0.021899309
0003d0 bc e5 d9 bd 18 ed 8b bc 36 c5 f4 bd 54 f4 5a bd
       -0.106395215 -0.017080829 -0.119516775 -0.053455666
0003e0 10 0f d5 3d 63 b5 35 bd 72 56 61 bd 46 fd 09 bb
       0.104032636 -0.044362437 -0.05501408 -0.0021055504
0003f0 a0 d6 0f 3d 5a e1 4f bc 98 56 03 3e b9 33 a9 bd
       0.03511679 -0.012688005 0.12826002 -0.082618184

backbone.fcs.1.bias f4 [64]
000000 5a 1c 99 3d 3c b9 ba bd 17 73 94 3d 20 97 7b bc
       0.07476111 -0.09117362 0.07248514 -0.015355855
000010 7d 14 01 be 5d e4 ab 3d 1a 25 6f bd 4a 11 ad bd
       -0.12605472 0.08393166 -0.058384992 -0.08450563
000020 5e bb da 3c d8 70 05 3c 9b 3a 82 3d ec 85 ad bd
       0.026700672 0.00814458 0.06358834 -0.08472809
000030 d1 97 3e 3d 27 a9 21 3d 5e d9 30 3d 6f c0 0d bc
       0.046531502 0.039467957 0.043176048 -0.008651837
000040 e9 d3 4f bb 71 dd 22 3d 9a 2f b0 3d f6 7d 2d bd
       -0.0031712002 0.039761964 0.08602829 -0.042356454
000050 06 85 bc bd 58 1a fa bd d5 c0 86 3c 88 08 d2 bd
       -0.0920506 -0.12212056 0.016449371 -0.102555335
000060 c7 c7 b7 bc 50 e5 8e bd 72 06 e0 3c 19 c5 b4 bd
       -0.022434128 -0.06977332 0.027346823 -0.08826656
000070 ab c8 b7 3d bc b4 03 be 21 0d a0 bd 59 1a 04 3d
       0.08973821 -0.12861913 -0.07815004 0.03225169
000080 3f be 08 be d4 4f a8 3c 9b e6 c4 bc 76 71 1f bd
       -0.13353823 0.020545878 -0.024035743 -0.038926564
000090 3e d3 97 3d 94 29 27 bd ef 75 84 3c 57 c5 af bc
       0.07413338 -0.040811136 0.016169516 -0.021456404
0000a0 f6 e5 04 3d 1c d2 c5 3d 54 60 d4 3d d5 83 75 bd
       0.03244587 0.09659216 0.10369936 -0.059940178
0000b0 dd d4 b7 bd 18 83 c8 bd be ab 46 3c f0 5b 25 3d
       -0.08976147 -0.09790629 0.0121259075 0.04037088
0000c0 64 3f 97 3d f6 2e a6 3c 46 fc b8 3d 0f da c2 bd
       0.07385138 0.020286065 0.09032492 -0.095142476
0000d0 89 dc f4 bd 6f 08 56 bd 2f 32 5b 3d 55 ae de bd
       -0.11956126 -0.052254137 0.053514656 -0.10873095
0000e0 6f 6b ad 3d 6c 59 c1 38 58 84 9f 3d 28 14 ec 3d
       0.08467757 9.219613e-05 0.077889144 0.11527282
0000f0 0e 4c b6 3d 9c 81 ca 3d 50 ce 5e bc c5 66 6d bd
       0.08901225 0.09888002 -0.013598993 -0.057959337

backbone.ln.weight f4 [64]
000000 90 ac 88 3f 14 c8 90 3f 68 ed 7a 3f 05 9a 90 3f
       1.0677662 1.1311059 0.98018503 1.1297003
000010 b2 30 82 3f f0 aa 92 3f d1 6a 90 3f 48 6a 85 3f
       1.0171111 1.1458416 1.1282598 1.042306
000020 45 19 7b 3f c7 08 82 3f 18 ab 8b 3f 17 11 82 3f
       0.98085433 1.0158929 1.0911589 1.0161465
000030 a5 19 7f 3f c3 fe 87 3f a0 f3 7e 3f 43 10 84 3f
       0.99648505 1.0624622 0.9959049 1.0317463
000040 48 07 7c 3f 93 53 94 3f 75 4f 8b 3f 8a 1c 8f 3f
       0.9844861 1.1588005 1.0883623 1.1180584
000050 97 3e 8e 3f 8a 98 7e 3f c1 78 8c 3f 5f f8 8c 3f
       1.1112851 0.99451506 1.0974351 1.1013297
000060 9d b1 88 3f dc 18 82 3f fb c9 85 3f f3 64 81 3f
       1.0679203 1.0163836 1.0452265 1.0108932
000070 6c ca 8d 3f e5 d5 84 3f 21 17 82 3f 0b ca 7d 3f
       1.1077399 1.0377775 1.0163308 0.9913642
000080 6c fd 81 3f e4 bf 8b 3f 80 c9 85 3f 60 c8 8f 3f
       1.0155463 1.0917935 1.0452118 1.1233025
000090 ac 4b 84 3f 46 26 93 3f 10 bc 81 3f 82 4c 8c 3f
       1.0335593 1.1496055 1.0135517 1.0960848
0000a0 62 0b 86 3f eb ac 85 3f f7 a0 95 3f 26 bf 91 3f
       1.0472224 1.0443395 1.1689748 1.1386459
0000b0 7d f2 80 3f 49 13 82 3f f3 2e 80 3f 64 1d 87 3f
       1.0074002 1.0162135 1.0014328 1.0555844
0000c0 9f c2 93 3f 4b b7 80 3f 53 aa 83 3f fc 72 89 3f
       1.1543769 1.0055937 1.0286354 1.0738215
0000d0 ff 6e 7d 3f eb b6 7c 3f 86 fc 7e 3f e8 15 82 3f
       0.9899749 0.9871661 0.9960407 1.0162935
0000e0 17 87 89 3f 27 7a 7b 3f 0e 70 84 3f e5 9a 83 3f
       1.0744351 0.98233265 1.0346696 1.0281645
0000f0 2a 03 87 3f d7 34 86 3f ea a0 81 3f 8c ff 81 3f
       1.054784 1.0484875 1.0127232 1.0156112

backbone.ln.bias f4 [64]
000000 b8 3f 06 3c a8 4e 18 3c 75 a3 a7 3b 1f 5d 14 bc
       0.008193903 0.009296097 0.005115921 -0.009055405
000010 40 c9 f7 bb f5 b4 59 bc 7f 7b 1b 3c 6a 6c 47 bc
       -0.0075618327 -0.013287772 0.009489893 -0.012171844
000020 1a 09 cb 3b 08 6d eb bb 43 ae 08 bc 17 ee e9 bb
       0.0061961534 -0.0071846284 -0.0083423285 -0.007138978
000030 fe df e4 bb 5b 3c 05 bc 8c d0 41 3b f1 c4 14 3c
       -0.0069847098 -0.008132066 0.0029573767 0.009080158
000040 90 89 da bb 47 70 29 3c f9 da 14 3c 28 75 81 bb
       -0.0066692308 0.01034171 0.00908541 -0.0039507337
000050 dc 93 0e bc 1d 97 f1 3b 89 8e 11 bc 02 d1 ef ba
       -0.008702245 0.0073727504 -0.008884081 -0.0018296542
000060 ed 86 14 3c 5a 75 eb bb d5 62 11 3c 24 6b ec 3b
       0.009065372 -0.0071856203 0.008873661 0.0072149206
000070 f6 60 1b 3c 12 24 1a bc 5b 0b eb bb d4 3f ce 3b
       0.0094835665 -0.009408014 -0.0071729845 0.00629423
000080 a7 8c e7 bb b5 fb 1e bc 64 21 15 3c 9a a4 27 3c
       -0.0070663276 -0.009703566 0.009102199 0.010232115
000090 35 4c fc bb 04 0a e0 bb 91 d8 ed bb b2 e7 21 3c
       -0.0076995143 -0.0068371315 -0.0072584827 0.009881901
0000a0 cc 9e 31 bc 53 70 09 bc 19 68 43 bc 9c 0b 48 3c
       -0.010841083 -0.008388597 -0.011926674 0.012209799
0000b0 96 9f ef 3b 96 d4 ea bb d5 c0 99 ba 82 c2 02 3c
       0.0073127253 -0.0071664555 -0.0011730442 0.007980945
0000c0 33 cc 20 3c 52 89 09 bc cc dd fc 3b 77 87 1a bc
       0.00981431 -0.008394556 0.00771687 -0.009431711
0000d0 10 80 d6 3b f8 a6 d8 3b 02 93 65 3a 1b 4b ed bb
       0.006546028 0.006611701 0.00087575626 -0.0072416193
0000e0 c1 51 03 3c 2e 97 d9 3b e3 0a f0 3b 0a 7f f0 3b
       0.008015097 0.0066403365 0.0073255165 0.007339363
0000f0 41 36 01 3c fb b4 fb 3b ef 8a f7 3b 33 78 00 3c
       0.00788647 0.0076814867 0.007554404 0.007841158

logits.weight f4 [2, 64]
000000 d2 a8 dc 3d 9b 61 58 3e a4 17 be bc fe 91 09 be
       0.107743874 0.21130984 -0.023204632 -0.13434598
000010 e6 bb 10 bd a2 12 f2 bd 14 30 22 3e b2 f1 0f be
       -0.035335444 -0.1181996 0.15838653 -0.14057043
000020 f9 cd ae 3d 71 4c a2 bc ee 37 1a be 63 86 76 bd
       0.0853538 -0.01981184 -0.15060398 -0.060186755
000030 e8 27 96 bd ba ec 26 be 38 df 3b 3b 7e 1a b1 bb
       -0.0733183 -0.16301242 0.0028666984 -0.0054047694
000040 e1 dc 24 bd df 09 bb 3d 2e f0 34 3d 28 0b bc 3b
       -0.04024971 0.09132742 0.044174366 0.0057386346
000050 3c 9f 48 be 8c f0 03 bc a9 10 9c bd 78 23 1f be
       -0.19591993 -0.008052956 -0.07620365 -0.15540874
000060 c0 d5 2b 3e f3 71 99 bd 98 03 09 3e e7 43 da 3d
       0.16780758 -0.07492437 0.13380277 0.106574826
000070 0d ed ad 3d 85 66 8c 3d 03 bf e0 bd f5 9f bd bc
       0.084924795 0.068554915 -0.109739326 -0.023147563
000080 6b 6a f2 bd 8a 49 19 be 09 ad 94 3d 00 d0 37 3e
       -0.11836704 -0.14969459 0.07259566 0.1795044
000090 73 2b d3 bd 73 b1 07 be 04 c1 a9 bd 8d 86 58 3d
       -0.10311022 -0.13251285 -0.08288768 0.052862693
0000a0 48 9a 06 be c6 95 04 be e2 de 0e be 70 8d 55 3e
       -0.13144791 -0.12947759 -0.1395221 0.20854735
0000b0 01 d6 e9 3c 93 70 8a bd 83 ff ce 3d 61 f4 0e 3e
       0.028544428 -0.06759753 0.10107329 0.1396041
0000c0 01 32 4a 3e 94 ec 21 bb 32 bd 38 3c ec 92 0e 3d
       0.19745637 -0.0024707662 0.011275576 0.034808084
0000d0 15 3f 68 3d c2 2c a7 3d 2a 81 7d 3d df 69 50 bd
       0.056700785 0.08162834 0.06189076 -0.050882217
0000e0 38 51 2e 3e b8 d6 b6 3b b0 01 21 3e 21 4b 1b 3e
       0.1702317 0.0055797957 0.157233 0.15165378
0000f0 af 96 1b 3e a6 c1 01 3e d4 9b e1 3d dd 2a 38 bd
       0.151942 0.12671527 0.1101605 -0.044962753
000100 53 a3 d3 bd f8 0f 09 be 88 3d 1a bd ed 4e 49 3e
       -0.10333886 -0.13384998 -0.037656337 0.19659014
000110 64 95 db 3c e7 bd 2b 3d 57 13 1e be 36 9a c2 bd
       0.026804633 0.041929152 -0.15437065 -0.0950207
000120 10 85 f5 3c db 18 00 3e 6a c9 20 3e 39 d7 ea 3d
       0.029970676 0.12509482 0.15701833 0.11466832
000130 33 eb a7 3d 21 25 db 3d dd 3c c8 3b 50 6f ec bd
       0.081991576 0.10700441 0.006110771 -0.11544669
000140 a7 ba 9b 3d 8a 61 4d be 33 d8 0b be 12 bd cb 3d
       0.076039605 -0.2005674 -0.13656692 0.09948172
000150 3a 61 27 3e db 70 75 bd b4 48 1d 3e 4c 89 82 bd
       0.16345683 -0.05992208 0.15359765 -0.063738436
000160 99 d9 ba bc 04 1a 91 3d 45 29 3b bc 21 19 a6 bd
       -0.022808837 0.0708504 -0.011423414 -0.08110262
000170 af ee 29 be 9f ca fe 3d 73 06 31 3d 6b 67 35 bd
       -0.16594957 0.12440991 0.04321904 -0.04428808
000180 17 e7 0a 3e 84 a2 42 3d 14 47 66 bd e5 fd 5d bd
       0.13564716 0.04751827 -0.05622013 -0.05419721
000190 9a 30 08 3e 6e 07 d8 3c 00 26 5c 3c ae 6c f5 bd
       0.1329979 0.02637073 0.013436794 -0.1198362
0001a0 88 6d ed bc bc 55 5d 3c ed c9 e5 3d d1 9c af bc
       -0.028982893 0.01350921 0.11220155 -0.02143708
0001b0 5a 90 cd bd 07 6f b4 3d 79 1d a4 3d 35 57 7c bd
       -0.100372985 0.08810239 0.08013434 -0.061606605
0001c0 76 60 fc bd b5 22 0d 3d 0f 96 0e be dc a9 0d 3e
       -0.12323086 0.034456927 -0.1392443 0.13834327
0001d0 c9 63 3a bc 17 d8 94 3c 20 f6 b2 3d e7 21 8a 3d
       -0.01137633 0.018169446 0.08738351 0.067447476
0001e0 fb 45 fa bd 06 5d 95 bd e8 0d 1d be 8b d7 06 be
       -0.12220379 -0.072931334 -0.15337336 -0.1316816
0001f0 db 4e 96 bd b2 ea 0f be cd db c9 bc 63 77 a3 bd
       -0.07339259 -0.14054373 -0.024640942 -0.079817556

logits.bias f4 [2]
000000 8c 3c 9f 3d d8 e5 a0 3d
       0.0777522 0.07856339

backbone.fcs.0.weight f4 [64, 25]
000000 ae 10 19 3e 46 b9 10 be 79 f1 03 be 89 69 ae 3d
       0.14947769 -0.14133176 -0.12885083 0.08516223
000010 94 4b 4c bd 1e b7 20 3e 74 88 24 be aa 70 37 3e
       -0.049876764 0.15694854 -0.16067678 0.17914072
000020 ae 72 24 be a6 c9 36 be cb 0a 03 bd 5b cf de bd
       -0.16059372 -0.1785036 -0.031992715 -0.10879394
000030 3d 45 15 be 9f a8 d7 3d 58 49 19 3e 41 97 d0 3d
       -0.14577194 0.10530209 0.14969385 0.101850994
000040 a9 e1 68 3c 8d e0 e8 bc 17 60 09 be 73 5f 2e 3e
       0.014213958 -0.028427387 -0.13415562 0.17028598
000050 4b f2 05 be b0 c2 33 be 2a 15 2f 3e fd 04 6e bc
       -0.13080709 -0.17554736 0.17097917 -0.0145275565
000060 8f 21 03 3e fa c4 9f bd a4 1b 26 3e 0f ad 0b be
       0.1280577 -0.07801242 0.16221482 -0.13640235
000070 98 ef e3 3d 6a a4 10 3e 1f 11 24 3d 79 4f 1f 3e
       0.11129683 0.14125219 0.04005539 0.1555766
000080 b2 ac 91 3c 79 7b 40 be 02 23 a4 3d 3c 81 24 be
       0.017782543 -0.18797101 0.0801449 -0.16064924
000090 cc a8 14 3a d6 1f 44 be b6 8b bc bd f0 b4 68 bd
       0.00056709046 -0.1915277 -0.09206335 -0.05681318
0000a0 ed ba 95 bd 27 1d 43 be 26 0e 1c be 0c 47 6d be
       -0.07311044 -0.1905409 -0.15239772 -0.23171633
0000b0 81 8f 39 be d6 4b 51 be 3f bd cc bd a4 6b 6d bd
       -0.18121149 -0.20439085 -0.09997033 -0.057963982
0000c0 bb e5 27 3e ab 1f 05 be d9 40 21 be 75 21 2b be
       0.16396229 -0.13000362 -0.15747394 -0.16711982
0000d0 41 7b 24 3e 2e 4d c4 bc 0a 15 26 bd 96 a1 11 3e
       0.16062643 -0.023962583 -0.04054741 0.14221796
0000e0 21 ae 26 be 0a 0c 4e bd 5e e7 3a 3e 38 ec ca 3d
       -0.16277362 -0.05030445 0.18252322 0.099083364
0000f0 4c 48 22 be 7f 66 5b bd 01 44 69 3c e9 15 91 3d
       -0.15847892 -0.053564545 0.014237405 0.07084257
000100 34 27 be bd a0 0c 0c 3e a9 87 9c ba f7 b3 42 be
       -0.09284821 0.13676691 -0.0011942285 -0.19013964
000110 c9 62 20 3d 31 63 4d be 73 65 57 3c 21 53 46 be
       0.03915671 -0.2005737 0.013146746 -0.19367649
000120 37 90 a4 bd 3b 85 93 bd 22 57 35 be 6d e6 60 bd
       -0.08035319 -0.07203146 -0.1770902 -0.05490725
000130 cb 97 18 3c 8d 30 ec bd 73 7d c1 3c ed 3d d4 3d
       0.009313534 -0.11532698 0.02361939 0.10363374
000140 0a f2 54 3d 84 9c 46 be f7 24 4e 3c c2 70 db bd
       0.05198864 -0.19395643 0.012582055 -0.10714866
000150 53 73 74 3d 7a 27 20 be c7 c3 0b be 29 2c a3 bb
       0.059680294 -0.15640059 -0.13648902 -0.0049796295
000160 bc 1c f0 3d 5e ca 4b bd 6e 03 f6 bb 58 f5 8c bc
       0.11724231 -0.04975354 -0.007507733 -0.017206833
000170 d7 c1 2c be 77 74 f0 bc 02 71 79 bc 89 2e a1 3c
       -0.16870819 -0.02935241 -0.015224697 0.01967551
000180 dd bf c6 3d 94 cc 7d 3d 45 ff ed 3d d8 10 cc bc
       0.09704564 0.06196268 0.116209544 -0.024910375
000190 1d 2a 93 bd 84 87 32 3e 63 35 1c 3e 68 6e ee 3d
       -0.07185767 0.17434508 0.1525474 0.11642152
0001a0 57 61 1a 3e 66 6f 89 3d 03 5f 46 3e d3 b2 56 3e
       0.15076195 0.06710701 0.19372182 0.20966654
0001b0 d4 07 43 be 67 06 3e be f1 c0 d3 bd 0e 86 1f 3e
       -0.19045955 -0.1855713 -0.10339535 0.15578482
0001c0 f4 c8 47 3e d7 28 21 3c e2 b0 19 be 25 ac c2 bd
       0.19510251 0.009836397 -0.15008882 -0.0950549
0001d0 ba ef cb 3d e0 b1 42 3e 60 de 1c 3d a1 01 1b be
       0.099578336 0.19013166 0.03829801 -0.1513734
0001e0 99 c4 25 3e 8e 35 2b 3e c1 48 9f bd 63 7c 4c bd
       0.16188277 0.16719648 -0.077775486 -0.049923312
0001f0 39 49 1a 3e cc 49 24 be b2 57 26 3e fd 34 22 bd
       0.15066995 -0.16043776 0.1624439 -0.039601315
000200 e0 ff 80 bc 80 5e d8 bd 25 d7 38 be bd 1d af 3d
       -0.01574701 -0.105648994 -0.18050821 0.08550594
000210 c9 2d 59 bc d9 57 27 bd c2 d5 24 3e 96 52 21 3d
       -0.013255545 -0.040855262 0.16097167 0.0393854
000220 74 a2 55 bd 23 28 4d be 05 1a d6 bd 56 f4 76 bd
       -0.05215688 -0.20034842 -0.104541816 -0.06029161
000230 aa 00 b5 3d 4b 3c 3f be 51 fc f7 3d 58 61 31 3e
       0.08838017 -0.18675344 0.121086724 0.1732229
000240 fc 2f 5c 3d c7 2b fa bd 7f 55 9b 3d c0 1a e2 bc
       0.0537567 -0.12215381 0.075846665 -0.027600646
000250 c3 df 05 3e 47 ee 4e 3d 9b da c3 3d cb 05 80 bc
       0.1307364 0.050520208 0.0956318 -0.015627762
000260 8f ca ec 3c 90 a8 91 3d 78 d3 16 be e9 c9 91 3d
       0.028905181 0.07112229 -0.14729106 0.071185894
000270 6a 05 3a 3e 95 f3 24 3e a3 61 99 3d f7 85 14 bd
       0.18166128 0.16108544 0.07489326 -0.03626057
000280 1d 9d a6 3d 7b b0 33 be f5 cc 7f bd 29 2e 33 3e
       0.08135436 -0.1754779 -0.06245132 0.17498077
000290 05 d9 dc 3c 8f 82 0a bb 02 87 20 be 3d 21 ea bd
       0.026958952 -0.0021134948 -0.15676501 -0.11432121
0002a0 31 4c 0a 3d de b3 0d be bd 3e 97 3b 97 af 01 be
       0.033764068 -0.13838145 0.0046156333 -0.12664638
0002b0 b0 37 50 3d 6b 3a 9f 3c 47 c3 2f be 75 e3 58 3d
       0.050834358 0.019437036 -0.17164336 0.052951295
0002c0 62 05 0b bc f3 9f ba bd 8b 69 0e 3e b8 6d 0a be
       -0.00848517 -0.09112539 0.13907449 -0.13518417
0002d0 45 1c 33 be 9c 0a 7d 3d 80 9c dc bd 77 f7 81 bd
       -0.17491253 0.061777696 -0.107720375 -0.06346028
0002e0 a0 2b 30 be ed 8b 43 bd f0 57 1f 3e 9e 2b 47 be
       -0.17204142 -0.047740865 0.15560889 -0.19450232
0002f0 b9 c0 00 be 33 a9 23 bd 92 76 1a be 9b 6d 40 3d
       -0.12573518 -0.039956283 -0.15084293 0.046979528
000300 27 61 5c bc 07 81 0d 3e b1 a8 2c be ba 42 c8 3c
       -0.013450897 0.13818751 -0.16861226 0.02444588
000310 7b 9b 83 3d 2e 01 78 bc 4f 00 c3 bd b0 e4 40 3e
       0.0642614 -0.015137 -0.09521543 0.18837237
000320 b9 5b 0a be c4 aa 41 3e 69 70 74 3d 10 d4 e3 3d
       -0.13511552 0.18912798 0.059677515 0.11124432
000330 2c 14 44 3e c3 ae 98 3c de 54 40 3d bf 98 0b bd
       0.1914832 0.01863802 0.046955936 -0.034081217
000340 23 d7 57 be 67 aa be 3d 94 f0 1f 3e 30 44 cc 3d
       -0.21078162 0.093098454 0.15619117 0.09973943
000350 6d b7 35 bc cb 2b 2e be 33 fc 49 3a 50 33 78 3d
       -0.011091095 -0.17008893 0.0007705122 0.06059581
000360 d3 59 1d be 67 88 2b 3e 21 24 14 bd 1f 92 1a 3d
       -0.15366296 0.16751252 -0.036167268 0.03773701
000370 43 96 16 3e 36 29 9e 3d 72 f3 d0 bd b3 03 bb 3d
       0.14705758 0.07722704 -0.102026835 0.09131565
000380 cc 10 fe 3d 77 4a bf 3d ea 9a c0 bd 0b bf 42 3c
       0.124055475 0.09340375 -0.094045475 0.0118863685
000390 e9 b5 e3 bd 08 9c 65 bc 7e 9e a8 bd 9e a9 07 3e
       -0.11118681 -0.0140142515 -0.08233355 0.13248298
0003a0 f5 52 26 3e a9 60 9c be 89 ce cf bd c8 72 b9 bd
       0.16242583 -0.30542496 -0.10146815 -0.09055096
0003b0 f8 f3 12 be e0 d0 33 3e ef 23 1d be 92 af cf bd
       -0.14350879 0.17560148 -0.15345739 -0.10140909
0003c0 77 67 27 be 99 b3 44 ba 84 6f 63 be 86 63 4f be
       -0.16348062 -0.0007503569 -0.22210509 -0.20252809
0003d0 d2 1f 0a 3e 72 51 b7 bc 5f b8 fb 3d a1 45 4e 3e
       0.13488701 -0.022377703 0.12291025 0.20143749
0003e0 54 87 c2 3d 1d 1b 4f ba c6 ed 1b be 30 29 6e 3d
       0.09498468 -0.00079004635 -0.15227422 0.05814475
0003f0 c2 a2 26 be 81 cb 12 bc 6a 60 d4 bd 15 d5 08 be
       -0.16273025 -0.008959652 -0.10369952 -0.13362534

backbone.fcs.0.bias f4 [64]
000000 63 9b 37 be d1 23 2d 3e 50 cf 04 be 95 46 1d be
       -0.17930369 0.16908194 -0.12969708 -0.15358956
000010 e0 58 4b 3e 50 36 f6 bd 1d 17 bc bd af b5 98 3b
       0.19858122 -0.12022078 -0.09184096 0.0046603302
000020 70 9e 88 3d 6b b2 83 bd e1 b9 d3 3d f6 0c f0 bd
       0.066708446 -0.06430515 0.10338188 -0.11721222
000030 b4 e6 0a 3d 5c bf 47 be 3a 54 40 be 3f f9 5e 3d
       0.033911422 -0.19506592 -0.1878213 0.05443692
000040 d9 a8 bb 3d fb 72 8a bd 91 20 65 3d f4 01 65 bd
       0.091630645 -0.06760212 0.05593926 -0.055910066
000050 24 10 09 3e 3f c4 c3 3c 40 ce 4c bd 99 53 3c 3d
       0.13385063 0.023897288 -0.050001383 0.045978162
000060 b4 9b 48 be bc 2f f1 3d 0b 5c 50 3e 85 d9 26 3e
       -0.19590646 0.11776683 0.20347612 0.16293915
000070 39 e7 04 be 9f f2 4b bd 68 3c bb bd e5 ba 9e 3c
       -0.1297883 -0.04979193 -0.09142381 0.019376228
000080 87 83 ff bd 49 23 0d be 3d c3 a8 bd 1b ea 30 3e
       -0.12476259 -0.13782991 -0.08240364 0.17276804
000090 db b1 1f 3d e1 8f 3d be 62 fe a1 bd b3 13 12 be
       0.038987976 -0.18511917 -0.07909848 -0.14265327
0000a0 1e b0 f0 bc 32 89 3b 3c 5a 03 fc bd ef 58 1d be
       -0.029380854 0.011446284 -0.12305327 -0.15365957
0000b0 3f 9c 0f bd 2e af 2c 3c c3 47 08 3e c7 79 b4 3d
       -0.035061117 0.010539813 0.13308625 0.0881229
0000c0 4d ac d9 bd 2d eb 4b be 0d b8 18 3d 39 0b 85 bb
       -0.10628567 -0.19913931 0.0372849 -0.0040601757
0000d0 5f 94 ef 3d 4d 0a fa bd 80 68 e0 3b 08 e5 01 be
       0.116982214 -0.12208996 0.006848395 -0.12685025
0000e0 e3 b2 ac bd e1 f8 a3 bd 29 75 02 bc c7 c1 42 bc
       -0.084325574 -0.08006454 -0.0079625035 -0.01188702
0000f0 5f 33 3e 3e 9a 32 2e 3e 2f e2 2a 3e c6 96 94 3d
       0.18574284 0.1701149 0.16687845 0.0725532

backbone.fcs.1.weight f4 [64, 64]
000000 a1 d9 11 bc 1a 0b 40 3e 01 fa b2 bd 55 20 64 bd
       -0.008901984 0.18754235 -0.08739091 -0.055694897
000010 a2 6d 63 bd 1e b7 83 3d dc 2e 0a 3e f1 67 df bd
       -0.055524476 0.06431411 0.13494438 -0.10908497
000020 9c 96 1d bd 48 63 45 be 97 87 97 bc 67 b7 62 bd
       -0.03847371 -0.19276154 -0.018497271 -0.055350687
000030 f9 99 88 3c d5 50 8f 3c b2 de 01 3e 2a 96 ab 3d
       0.016674982 0.017494598 0.12682608 0.08378251
000040 f5 11 27 3d 78 44 20 3c d1 fb d7 bd eb 6c 3e 3d
       0.04078861 0.009781949 -0.10546077 0.04649059
000050 be 59 d2 bd e7 9b 09 bd 11 29 74 3d c2 45 af bd
       -0.10271023 -0.033595946 0.059609476 -0.08558227
000060 14 a6 c8 3c 14 2a 8c 3d 5f 84 ae bd 7c 18 b4 3b
       0.024493255 0.06843963 -0.085213415 0.005496083
000070 26 50 f1 bd 9a c3 78 3d c5 30 f6 3b d0 e2 94 3d
       -0.11782865 0.060733415 0.007513138 0.072698236
000080 7a 34 06 3d 66 f8 8e bc 38 75 b7 bb f7 dd b2 3c
       0.03276489 -0.01745243 -0.0055986904 0.021834357
000090 07 b9 33 bd b3 02 7c 3c 47 49 e7 bd 38 78 5e 3d
       -0.043877628 0.015381503 -0.112932734 0.05431387
0000a0 bc 3f 6a 3d c4 fc a9 3d 72 a5 ad 3c 02 f4 95 3d
       0.057189688 0.08300164 0.021197055 0.073219314
0000b0 b2 0d cf 3d f7 a2 83 3d 61 2e f8 3d 66 59 23 be
       0.10110034 0.064275675 0.12118221 -0.15952072
0000c0 89 a1 dc 3b 35 72 d1 bd 46 40 a7 3d a7 0b ab 3d
       0.0067331237 -0.102268614 0.08166556 0.08351832
0000d0 6e 2d 10 3a 70 13 b2 bd 0a c7 49 3d 6e 7d aa bd
       0.00054999336 -0.08695114 0.049262084 -0.08324705
0000e0 6a b6 cf bc 1b 00 e0 bc 53 49 c8 bd 38 73 b4 bc
       -0.025355536 -0.0273438 -0.097796105 -0.022027597
0000f0 34 72 17 be 70 c6 47 3d f5 f4 8a bd 0a e2 06 be
       -0.14789659 0.04877323 -0.06785003 -0.13172165
000100 bf 57 a0 bc 10 12 cb 3d 5a 0a 7d 3d 2a 54 aa 3d
       -0.01957309 0.099155545 0.06177745 0.08316834
000110 22 94 f6 bc 5f 7e e1 3d 87 41 6c bd 4f 77 16 bc
       -0.030099932 0.110104315 -0.05767968 -0.009183719
000120 44 42 ef bd b5 d8 cb 3b e5 bc e2 3c 80 8d f2 bd
       -0.11682561 0.006220902 0.027677963 -0.11843395
000130 06 2e 00 3e cf ea c2 3c 57 08 fd 3d 64 8e 59 bd
       0.12517557 0.023793606 0.12355106 -0.05311431
000140 d9 bb 57 3b 30 33 01 bd 60 ed d6 3d 87 b1 91 bd
       0.0032918362 -0.031542957 0.104944944 -0.07113939
000150 e2 47 ad 3d 3a 0b df bd 52 c5 bd 3d 66 b2 19 be
       0.08460976 -0.10890813 0.092661515 -0.1500946
000160 38 8a 43 bd ce a7 6a bd bf 58 07 bd 44 f7 2f bb
       -0.047739238 -0.057288937 -0.03304362 -0.0026850263
000170 73 7b ac 3c a7 b6 e8 3d 4c 4d ab 3d b2 4b 84 bd
       0.021054959 0.11362963 0.083643526 -0.0645975
000180 09 04 96 3d ee 35 89 bc 9c 24 8e bd 51 5f 3d 3d
       0.073249884 -0.016749348 -0.069405764 0.04623348
000190 a3 3d bd bc 08 57 f1 3d f3 6d bf bc 71 db b2 3d
       -0.02310068 0.11784178 -0.023367858 0.087332614
0001a0 f9 af 1a 3d 1f 11 8d bd 3b c8 19 3d f6 e5 94 bd
       0.037765477 -0.06888031 0.03754447 -0.07270424
0001b0 94 fc 0b bd ea 7a 1d bd 9d 6f c8 bd 36 65 3c 3d
       -0.034176424 -0.038447298 -0.097869135 0.04599496
0001c0 19 04 b3 3d ce 19 e7 bd 06 8c 89 3d 30 27 cf bd
       0.08741016 -0.11284219 0.067161605 -0.10114896
0001d0 0b 95 02 be 2d 9a 5d 3d b1 1d 08 3c 85 0c 9e bd
       -0.12752168 0.05410211 0.00830786 -0.07717232
0001e0 a8 49 bd 3d 4a 83 99 3c c0 e5 96 bd e4 07 75 3d
       0.092425644 0.018739361 -0.0736804 0.05982198
0001f0 12 1a ed 3b a8 81 e5 bc b9 37 bf bd 38 f9 01 bc
       0.007235774 -0.028015926 -0.093368 -0.007932954
000200 ce 21 94 3d 60 94 81 bd 0c cf 6b 3d c3 61 01 be
       0.0723301 -0.063271284 0.057570502 -0.1263495
000210 81 49 56 bd b4 0e 21 bd e2 31 e1 bd 94 f9 36 3d
       -0.052316193 -0.039320663 -0.109958425 0.04467161
000220 e7 f6 d1 bd 9a 25 94 3d 08 a5 d1 3c 18 7d d9 3a
       -0.10252171 0.072337344 0.025591388 0.0016593067
000230 ed 6e 93 bd a3 42 30 bd d0 94 f8 3c 24 aa ea 3d
       -0.07198892 -0.0430323 0.030344397 0.11458233
000240 f9 67 80 bd 0d 35 b5 bd f8 18 63 bd 4c e0 b7 bd
       -0.06269831 -0.08848009 -0.055443734 -0.08978328
000250 84 2e ab bc 1c 4e bd bd 83 9a b0 3d 64 d0 a9 3d
       -0.020896204 -0.09243414 0.08623221 0.082917005
000260 c9 aa a9 bd 54 8e d8 3d 78 2b a2 3c 0f 61 ae bd
       -0.08284528 0.10574022 0.019796118 -0.08514606
000270 d7 d2 13 3d 88 83 e8 bd 83 f9 8e bd 1f 28 bd bd
       0.036089744 -0.113532126 -0.06981184 -0.09236168
000280 dc ab 96 bd d8 22 ff bc f2 e9 d4 3c c2 b0 94 3c
       -0.07356998 -0.031144544 0.02599046 0.018150691
000290 f6 36 fa bd 36 05 f5 bd f8 55 9b bc 00 7b da 3d
       -0.12217514 -0.119638845 -0.018961892 0.10667992
0002a0 45 32 26 3d 42 40 d8 3d 49 ec 81 bd 9c b5 0e 3d
       0.040575285 0.10559131 -0.06343896 0.034841165
0002b0 c4 da de bd a2 c3 76 3d 54 44 10 bc b8 52 1b bc
       -0.1088157 0.060245164 -0.008805353 -0.009480171
0002c0 90 38 8a bd 28 17 e5 bd 1b 2f 47 bd 6d e5 6b bc
       -0.0674907 -0.11186057 -0.048628908 -0.014397961
0002d0 2b 65 90 bd 05 51 48 3d 52 0e d9 bc c8 a2 49 3c
       -0.07050546 0.04890539 -0.026496086 0.0123068765
0002e0 13 d4 fd bd ce ea 05 3d b7 39 85 bd 12 5a cd bd
       -0.123939656 0.03269463 -0.06505149 -0.10026945
0002f0 bb 95 6a bd 7d 01 f1 bd aa 1b d0 bd af 47 b6 3d
       -0.0572717 -0.11767862 -0.101615265 0.08900391
000300 0e 92 d4 3d 35 f2 bf bd 39 b1 b6 3c db 71 15 bd
       0.1037942 -0.09372369 0.022301303 -0.036485534
000310 3f c6 07 3e e9 81 99 3d e2 0f 1e 3d b4 bf d4 bd
       0.13259219 0.074954815 0.038589366 -0.10388127
000320 c3 e7 39 bd 54 3a ff 3a 5b 7f df bd b4 c3 67 bd
       -0.04538704 0.0019472339 -0.10912963 -0.05658312
000330 2e ae 3b 3d 1b 66 c3 bd bf bd 21 3d 06 69 3d 3b
       0.045820408 -0.095409594 0.039487597 0.002890171
000340 64 98 2c 3c a3 71 f7 bc d7 4b 81 bd bd d2 d3 bd
       0.01053438 -0.030205553 -0.063132934 -0.103429295
000350 97 7a 86 bd ae 08 d2 3d be e8 57 bc 95 b9 04 3e
       -0.06566351 0.10255562 -0.013178049 0.12961419
000360 55 02 d1 3b 1d 12 42 3a b4 d4 a9 3d 6c a9 ba bd
       0.006378452 0.0007403212 0.08292523 -0.09114346
000370 75 f7 52 bd f0 75 b2 3d 22 36 d9 bc 55 d4 f3 3d
       -0.051505525 0.08713901 -0.02651507 0.119057335
000380 22 d9 ac 3b 15 8e ab 3d a0 0d b6 3c d2 b0 0d 3d
       0.0052749077 0.08376709 0.022223294 0.034592457
000390 70 11 c4 bd a3 85 aa bd 79 de 98 3c 85 d3 6f 3d
       -0.095736384 -0.083262704 0.01866077 0.05855133
0003a0 05 e5 32 3d c8 c0 70 bc 76 c2 85 3c 96 3d df 3d
       0.04367544 -0.0146944 0.016328078 0.109004185
0003b0 34 d5 9d 3d 5d 17 61 3d b4 75 aa bd 61 3d f1 bb
       0.07706681 0.05495392 -0.08323231 -0.0073620533
0003c0 7b 6c 4a 3d a3 8d cf 3d 2a f2 8f bd 20 95 d1 3d
       0.04941986 0.10134437 -0.07028611 0.102335215
0003d0 20 0c 66 bc 38 85 b0 3d a8 e2 8a 3b 89 a8 db bd
       -0.014040977 0.086191595 0.0042384453 -0.10725505
0003e0 68 39 dd bd 50 0c b7 3c 3c 0f 31 3d e5 1e 71 bd
       -0.10801965 0.022344738 0.04322742 -0.058867354
0003f0 66 a1 e8 3d 4d 98 96 3d 0b 2f ac 3d a2 4e 95 3d
       0.11358909 0.07353268 0.0840741 0.07290389

backbone.fcs.1.bias f4 [64]
000000 d7 e8 9f bd fa 53 ec bd 31 15 d3 bd b6 3d c1 3d
       -0.078080826 -0.11539455 -0.10306776 0.094355986
000010 df d3 95 bd 9f 50 83 3b a5 c6 b8 3c 56 ec d3 bc
       -0.07315802 0.0040074135 0.022555659 -0.02586953
000020 14 49 00 3d 43 7e c2 bd 17 fa c9 3d 74 a6 b6 bd
       0.031319693 -0.09496739 0.09862154 -0.08918467
000030 b5 59 a6 bd d5 91 b7 bd f2 69 ac 3d 53 ee 7c bd
       -0.08122579 -0.08963362 0.08418645 -0.06175072
000040 2c c7 45 bd 82 b8 6f 3d ce 2f f2 bc 3c b2 ca 3d
       -0.04828565 0.05852557 -0.02956381 0.09897277
000050 1d f2 40 3d 10 2c d7 bb 8a 9a b7 bd 6b 46 e4 bd
       0.047105897 -0.006566532 -0.08965023 -0.11146244
000060 36 6b fc 3c 5e 70 6b 3c b9 09 f1 3d bf 78 ee bd
       0.03081284 0.014370052 0.117694326 -0.11644124
000070 25 09 a6 3c 11 d8 73 3d e3 09 99 3d e0 e4 81 3d
       0.020268032 0.05953223 0.07472589 0.063424826
000080 1b 71 de 3c a0 cb d3 bd 55 98 b8 bc e6 c3 0b 3e
       0.027153542 -0.10341573 -0.022533575 0.13648948
000090 74 64 89 bd 9d bc b1 bd 49 62 ea 3d 95 03 ca bb
       -0.06708613 -0.08678553 0.11444528 -0.006164978
0000a0 1c ea 52 bd 11 17 08 39 b1 78 7c 3d cc bf 2d 3c
       -0.051492795 0.00012978564 0.061638538 0.01060481
0000b0 b2 be d6 3d 91 09 49 bb be f2 67 bd d0 3a 81 bd
       0.10485591 -0.0030675868 -0.05662798 -0.06310046
0000c0 41 fd d9 bb 8c e3 4e 3b dd 00 a9 3d 1b bc 47 3d
       -0.0066525047 0.0031568734 0.08252118 0.048763376
0000d0 28 79 be 3d be b3 cf 3d 75 55 eb 3d bb eb 08 be
       0.093004525 0.10141705 0.11490909 -0.13371174
0000e0 12 b1 07 bd 98 97 60 bc 97 21 be 3d 5d 8f 86 bb
       -0.03312785 -0.013708018 0.092837505 -0.0041064457
0000f0 2f 78 2a 3d d5 f4 fd 3b 9f 2c f1 bd d2 9a ec bb
       0.041618522 0.0077501335 -0.11776089 -0.0072206045

backbone.ln.weight f4 [64]
000000 c1 68 83 3f 6d a9 77 3f 0d bd 82 3f 28 ee 84 3f
       1.0266343 0.967429 1.0213944 1.038518
000010 8e 0a 83 3f 0a 27 7c 3f e6 e1 7b 3f 28 7d 81 3f
       1.0237596 0.9849707 0.9839157 1.011632
000020 3f d6 7c 3f 81 dc 82 3f 22 ab 7f 3f 53 d6 83 3f
       0.98764414 1.0223542 0.998705 1.0299782
000030 40 ca 82 3f 3b 7b 85 3f 05 a6 81 3f 81 8c 84 3f
       1.0217972 1.0428232 1.012879 1.0355378
000040 ac d3 82 3f fc 11 80 3f ec ac 82 3f d6 a0 81 3f
       1.0220847 1.0005488 1.0209022 1.0127208
000050 28 e7 7e 3f 6e 79 85 3f da 27 83 3f a2 28 7b 3f
       0.99571466 1.0427682 1.0246537 0.98108876
000060 d3 eb 7f 3f 20 0e 8a 3f 00 70 81 3f e3 bb 82 3f
       0.99969214 1.0785561 1.0112305 1.0213588
000070 18 50 7b 3f ad a4 85 3f 4f c6 86 3f 84 a6 83 3f
       0.9816909 1.044088 1.0529269 1.0285192
000080 0e 55 7d 3f d9 7f 7f 3f c3 94 7e 3f 93 7d 80 3f
       0.9895791 0.99804455 0.9944574 1.0038322
000090 a3 e4 81 3f 7e e4 7e 3f b6 3c 7f 3f 3d 20 77 3f
       1.0147899 0.995674 0.9970201 0.96533567
0000a0 f8 f2 7a 3f 1a cb 82 3f 6b 28 89 3f ed 8c 7c 3f
       0.9802699 1.0218232 1.071546 0.98652536
0000b0 c9 e4 85 3f db ff 80 3f 29 c9 82 3f b6 32 83 3f
       1.0460445 1.0078081 1.0217639 1.0249851
0000c0 a6 0f 82 3f 1f 0f 86 3f 6f bf 7d 3f f5 ec 82 3f
       1.0161026 1.0473365 0.9912023 1.0228564
0000d0 10 53 7f 3f b6 95 82 3f f4 60 84 3f b5 c2 82 3f
       0.9973612 1.0201938 1.0342088 1.021567
0000e0 6c 92 84 3f 33 f2 80 3f 59 75 7a 3f da c4 86 3f
       1.0357184 1.0073913 0.9783531 1.0528824
0000f0 c6 2d 82 3f cd 25 86 3f af 1e 83 3f 88 87 7a 3f
       1.0170219 1.0480286 1.0243739 0.97863054

backbone.ln.bias f4 [64]
000000 bd ae c1 bc 80 98 67 3c 0d 9d 9f bc f1 ab a6 3c
       -0.023642892 0.01413548 -0.019484067 0.02034566
000010 ce 7b 9e 3c 07 b4 8c 3c 30 0c 8f 3c 14 b2 ab 3c
       0.019346144 0.017175687 0.017461866 0.020958938
000020 b6 f1 66 3c ec af a1 bc 91 aa 8a bc 98 46 b5 bc
       0.014095714 -0.019737206 -0.016927036 -0.022128388
000030 2b c5 9e bc 79 56 a9 3c 7b a4 a0 3c d2 e2 a7 bc
       -0.019381126 0.020671116 0.01960968 -0.020493899
000040 4f b5 a2 bc 5f 33 8b bc a6 fb a4 bc 93 e1 a2 bc
       -0.019861845 -0.01699227 -0.020139527 -0.019882953
000050 69 e5 86 3c 2d 60 cb 3c 0c 42 ad bc 54 71 8b 3c
       0.016466813 0.024826134 -0.021149658 0.017021812
000060 49 9d 95 bc c6 24 c0 3c dc f4 9c 3c 45 68 a1 bc
       -0.018263476 0.023455035 0.019159727 -0.01970304
000070 82 ca 86 3c a8 27 bd 3c c8 bc da 3c e1 32 9c 3c
       0.016453985 0.023090199 0.026701346 0.01906723
000080 78 71 d3 bb 21 e9 8c 3c b2 fe 7a 3c 64 ad 09 3d
       -0.0064527355 0.017201008 0.015319513 0.033612624
000090 2d 14 9a 3c 6c e4 84 3c 4c fe 92 3c 8f 52 81 3c
       0.018808449 0.016222201 0.017943524 0.015786437
0000a0 9e 6a 89 3c 8d a6 a0 bc ae fe b9 3c 07 f4 55 3c
       0.016774472 -0.019610668 0.022704449 0.013058669
0000b0 25 f5 c2 3c 0d f7 97 bc 19 72 a2 bc d6 59 a9 bc
       0.023798535 -0.01855042 -0.019829797 -0.02067272
0000c0 c8 5f a5 3c f5 bf ab 3c 0a f4 83 3c f2 6e a7 bc
       0.020187274 0.020965556 0.016107578 -0.020438645
0000d0 02 14 85 bc c4 98 a6 3c 80 fb a3 3c d7 e8 a0 bc
       -0.016244892 0.020336516 0.020017385 -0.019642277
0000e0 f3 11 ca bc a7 1b 91 bc 48 12 88 3c 90 ae eb bc
       -0.024666762 -0.017713381 0.01661028 -0.028769761
0000f0 33 6f 9a bc 9f e0 ab 3c 2a c2 9b 3c 8b 80 8a 3c
       -0.018851852 0.020981131 0.019013483 0.016906997

head.weight f4 [1, 64]
000000 fc 28 96 3c eb 96 20 bd 48 d2 11 3e 92 b8 0c be
       0.01833009 -0.039206427 0.14240372 -0.13742283
000010 66 74 03 be ce 9a 97 bd f9 39 c7 bd 72 47 14 bd
       -0.12837371 -0.074025735 -0.09727854 -0.036200948
000020 ff 73 60 bd 37 71 fd 3d 19 23 87 3d d2 f9 b3 3d
       -0.054798122 0.1237511 0.06598491 0.08787884
000030 12 62 03 3e be 13 12 be f7 45 b3 bd fc 3b 0e 3e
       0.1283038 -0.14265344 -0.08753579 0.1389007
000040 9c 58 e5 3d b0 3e ac 3c 67 34 b7 3d 53 52 35 3d
       0.111985415 0.021025985 0.08945542 0.044267964
000050 03 76 dc bb 78 2f 9c bd 8e 7e 87 3d ed e0 a6 bd
       -0.0067279353 -0.076262414 0.06615935 -0.0814837
000060 da ff fb 3d 16 e1 39 be 74 66 d8 bd f6 30 e5 3d
       0.12304659 -0.1815227 -0.105664164 0.11190979
000070 c3 a0 56 bd 0f 0f d0 bd ac d6 97 bd 3c e9 0b be
       -0.052399408 -0.10159122 -0.07413992 -0.1366319
000080 05 46 3c 3b 33 da 8c bc ac e3 a1 bc d0 2e 3f bc
       0.0028728258 -0.01719389 -0.019761883 -0.011668876
000090 66 df c9 bd 8f 32 92 bc a0 68 59 bc 99 1e b2 bd
       -0.09857063 -0.017846374 -0.013269573 -0.08697242
0000a0 21 a4 92 bd 25 d3 ef 3d 14 ef 3d be b9 1a d2 bb
       -0.07160211 0.117101945 -0.18548232 -0.006411877
0000b0 81 f6 ed bd d5 43 07 3e 44 b9 e6 3d d7 75 ac 3d
       -0.116192825 0.1320947 0.11265805 0.08420914
0000c0 2f 09 a2 bd 1e 88 1c be 87 7f 33 bc 88 50 c8 3d
       -0.07911908 -0.152863 -0.010955698 0.09780985
0000d0 d8 6d 65 3c c5 8e b2 bd 60 9e 13 be 92 46 01 3e
       0.01400324 -0.087186374 -0.14415884 0.12624577
0000e0 a1 1b 53 3d f3 f3 be 3d 56 3d b0 bd 24 a9 49 3d
       0.05154002 0.09323873 -0.08605449 0.04923357
0000f0 03 0e 09 3e e0 0c 2b be 6d db 10 be 48 07 bd bd
       0.13384251 -0.1670413 -0.14146204 -0.092299044
